data.pth (torch, 5015 bytes, 6 tensors)

l1.weight f4 [8, 54]
00000000: c91a b2be f8ae 11be 8f8f 1e3f a2e7 ca3e
00000010: ba20 233f 6fae 533f d9a1 de3e 2c82 ff3e
00000020: 8704 f13e 6d21 3c3f d79b 0b3f e217 2ebe
00000030: 8a8c d13e aa70 ddbe 40f7 453d fe46 683e
00000040: 838d 143f 3700 4a3f 8a2e 34bd eff3 103f
00000050: 331f 8fbe 27d5 373f 39a6 1e3f 2b59 813e
00000060: dd12 d93e d212 963e 8742 81be e8e2 17bd
00000070: 86bc 03be 3418 c13d 28c8 163f 10a4 17bf
00000080: f211 9c3d de2d 133f 6e6c 273c 771e 673e
00000090: 31a7 debd 3c1d 043f 6669 013f ea8f 1a3f
000000a0: 63d4 133f 25dd b7be 5470 81be b62d d33c
000000b0: 4e91 973e 5c3a 683e 2194 60bf 7d05 8cbe
000000c0: b433 a83e 0928 88be bfdd 333e 91e2 20bc
000000d0: dd70 253f 12ca d03e 40d0 28bc 844d 3fbd
000000e0: 549b 78bd 3bc4 b7bd 308f b9bd fc13 803d
000000f0: d7a7 92bd 8eb5 9f3d 3241 9cbd 28cf efbc
00000100: 53ee edbd 6ecf c33d f079 d5bd 844c e3bc
00000110: 183e 66bd 46f5 d4bd 4089 6f3c 7043 17bc
00000120: 563c a23d 5e65 b33d 52e1 043e d016 ae3d
00000130: c6d3 55bd 6047 eb3c b825 f53d 86d9 083e
00000140: 0039 7ebb 9423 f8bc 57fd 07be 282b ab3c
00000150: a070 8abb 24af d1bc 8981 f3bd 781f 71bc
00000160: 141a f23d 289f 5abc d82c 0d3d d4cb da3d
00000170: beac c1bd 30ef 1cbc 8017 23bc 180a e53d
00000180: c8d4 8bbc 404f 38bb 0041 f3bb 240d 1abd
00000190: 087e 2b3d d499 b7bc 4f2d a4bd 84d7 003e
000001a0: f230 aa3d 08ff e43d cbb8 95bd 3eb6 3ebd
000001b0: 2dba d13e 0736 4c3e 8304 153f 03e3 cb3e
000001c0: 79cb d23e 5b2d 18bf e8ba 9e3e 3dff 013f
000001d0: 5c2a 183f 49fc 163f 8d68 a83e 1c02 8cbe
000001e0: 79bb 123e 79bc b8be 4623 233d 8bdb a2be
000001f0: 90cc 653e e5b4 1cbf b2d4 c5be ffa3 833e
00000200: 90ed 9d3e f86c fd3d f1a9 8b3e 7687 5cbe
00000210: 8c6a 563e a5f3 8b3e 70bf c2be b21f 99be
00000220: e5c1 b7bd ed0d 90be e7f7 1abf cd10 94be
00000230: 5f67 b43e cf17 0b3f 4265 993e 0020 c8be
00000240: 226e 92be e51d 103f 13b1 f53e 3328 073f
00000250: 3bff dfbe 0fe4 22bf 29fb 51be e654 94bc
00000260: 38aa 9c3e 90af 413d d621 313f bf5f c63e
00000270: e15e 923e 1a3a 35bf 263b 0abe bbca 17bf
00000280: 7f43 e43e b28d 0d3f ad6e 153f 2490 aa3e
00000290: afac 9cbd 10e8 c8be 9f8c 47be 04a1 a43e
000002a0: cc31 a53e 5376 eabd b446 d93d b503 5bbd
000002b0: 6aeb 8abe 2f3e f8bd d4b8 163f 1306 22bd
000002c0: 652c c73e 2179 29be 7581 92be e889 bd3e
000002d0: 9b88 c43e cea6 0ebf 0303 043f 3bc5 0ebf
000002e0: 97b6 0ebf 9147 1ebf 97db 143e c231 f1be
000002f0: 9544 233f d3f7 863e cac4 fa3e c529 2a3e
00000300: 0a9e 703e 6068 e93d f41c 423e 5cd9 9a3d
00000310: 0353 a03e bf8b 973d b411 9b3e 214b bb3e
00000320: e1db 0d3e 9c00 143e 01a8 c43d 8de9 243f
00000330: d43d a03c 0733 c83e b27e 41be 879e f63e
00000340: c067 863f a8a1 b23e ad90 af3e 9430 163f
00000350: fd99 fcbd f346 063f 368f 4b3e e069 8d3e
00000360: 0ddd b7be a15f 133f 5eef adbe b42c d53e
00000370: e4a0 e83e c3fa bfbe b702 d8bd 1669 06bf
00000380: 24d4 67be 6933 19bf 102e 053f efe4 263f
00000390: 189f 9d3e 4f24 583f a043 233f b681 ce3e
000003a0: c0c4 223f 889d b2be cc18 0c3d 4090 513f
000003b0: a789 2dbe 8bcc 383f 646f 583f 1533 7a3f
000003c0: 45bc dc3e 2972 293f 5ef2 4fbe 7ef1 4c3f
000003d0: c044 04be c299 313f fe10 67be b5ea 1f3f
000003e0: 6a1e bbbd 9c4b 41be 7499 463f 39ad a53e
000003f0: efdc 6ebe ff8b 85be 1b29 30be c197 91bd
-0.3478606 -0.14226902 0.61937803 0.39629847 0.6372181 0.8268804 0.43482855 0.49904
0.47073767 0.73488504 0.5453467 -0.17001298 0.40927535 -0.43250018 0.0483315 0.22683331
0.5802843 0.7890658 -0.043989696 0.56622213 -0.2795349 0.7180962 0.61972386 0.25263342
0.42397204 0.29311234 -0.2524607 -0.03708163 -0.12864885 0.094284445 0.58899164 -0.59234715
0.0762061 0.5749186 0.010218723 0.22570215 -0.10871733 0.5160711 0.5055145 0.60375845
0.5774595 -0.35910907 -0.25281012 0.025778633 0.29603046 0.22678512 -0.87726027 -0.27347937
0.32851946 -0.26593044 0.17565058 -0.009819643 0.6462534 0.40779167 -0.010303557 -0.046704784
-0.060695007 -0.08972975 -0.09060514 0.06253812 -0.07160919 0.07798301 -0.076296225 -0.029273584
-0.11617722 0.095610484 -0.10423648 -0.027746446 -0.05621156 -0.10398345 0.014620125 -0.009232387
0.079216644 0.08759569 0.12976578 0.08500445 -0.052203916 0.028720558 0.11970085 0.13364229
-0.00387913 -0.030290402 -0.13280235 0.020894602 -0.0042248517 -0.025596209 -0.11889941 -0.014716975
0.1182138 -0.01334361 0.034466594 0.106834084 -0.09456776 -0.009578511 -0.009954333 0.11183566
-0.017069235 -0.0028123409 -0.00742352 -0.037610188 0.04186824 -0.022412218 -0.080164544 0.12582213
0.08310117 0.11181456 -0.07310637 -0.04656052 0.40962353 0.19942485 0.5821001 0.39821634
0.41170862 -0.59444207 0.31001973 0.5078009 0.59439635 0.58978707 0.32892266 -0.2734536
0.14329328 -0.36081293 0.03982856 -0.31808123 0.22441316 -0.61213523 -0.38638836 0.25711057
0.30845308 0.123743 0.27278093 -0.21536049 0.20939082 0.27334324 -0.3803668 -0.29906994
-0.08972529 -0.28135625 -0.6053452 -0.28919068 0.35235116 0.54333204 0.29960066 -0.39086914
-0.2859965 0.56295615 0.4798666 0.52795714 -0.43749413 -0.6362924 -0.20505966 -0.018106889
0.30598617 0.04728657 0.69192255 0.38744923 0.28588012 -0.7079178 -0.13499126 -0.5929372
0.44582745 0.55294335 0.58372 0.33313096 -0.07650124 -0.3923955 -0.19487236 0.32154095
0.32264555 -0.1144835 0.10609189 -0.053470332 -0.27132732 -0.121212356 0.58875775 -0.039556574
0.38901058 -0.16550113 -0.28614393 0.37019277 0.38385472 -0.55723274 0.51567096 -0.557697
-0.5574736 -0.6182795 0.14536892 -0.47108275 0.6377652 0.2636095 0.48978263 0.16617496
0.23497787 0.11396861 0.18956357 0.07560989 0.31313333 0.07399701 0.30286944 0.36580756
0.13853408 0.14453357 0.09602357 0.6441887 0.019560732 0.3910143 -0.18895987 0.48167822
1.0500412 0.3488896 0.34290066 0.58667874 -0.123340584 0.5245201 0.1987885 0.2761984
-0.35910836 0.57567793 -0.33971685 0.41635668 0.4543525 -0.37496004 -0.10547393 -0.525041
-0.22639519 -0.5984407 0.5202341 0.65193075 0.3078544 0.844304 0.6377506 0.40333337
0.63581467 -0.34885812 0.034203336 0.81860733 -0.16947041 0.7218711 0.8454497 0.97734195
0.43112388 0.6618982 -0.203073 0.8005599 -0.12916851 0.6937524 -0.22565076 0.6246751
-0.091366604 -0.18876499 0.775779 0.3235872 -0.23326467 -0.2608337 -0.1720318 -0.07109023

l1.bias f4 [8]
00000000: 2d9d 663f f68c c7bd 92a8 433f 85b5 0e3f
00000010: 8d02 463f b27a 373f 5fa5 3e3f e655 003f
0.9008358 -0.09743683 0.7642909 0.55745727 0.7734764 0.71671593 0.74471086 0.5013107

l2.weight f4 [8, 8]
00000000: 0efc 34be 98e0 d73d ceb5 8ebe ce71 75be
00000010: f198 afbe f8c3 1fbd c8ef ff3d 8bc0 31be
00000020: c2fc de3e 31a7 8c3e 7543 93bf 1265 5c3f
00000030: 9f41 363f 9d35 3dbf 437e c9be 0780 7e3f
00000040: 568a eb3f 26f1 dfbd 34ec 3e3f 27d6 56bf
00000050: dab9 c03f ce39 7c3e c52e 8a3f bc9f 2cbf
00000060: 3060 acbe 92ea 22be 1b31 73be 8192 3dbe
00000070: b5f8 56be 30b3 84be 30c3 023d d866 40bd
00000080: 54d5 e8be befc a4be 1054 02bf c8b5 1b3f
00000090: 4405 8d3f 2963 e83e 7180 a2bf 2af7 793f
000000a0: c87f 16bd 4a1c 203e e0d9 d43d f24f aebe
000000b0: 6453 51be 30e8 993c 5375 a0be e036 44bc
000000c0: d395 b13e 9e09 a1be b682 7d3f f12b 913f
000000d0: b734 9abf 9e42 193c f834 19be 7efa b43f
000000e0: 223c edbe 6373 a83e 9b46 ad3f 1e97 183f
000000f0: 407e 16bd 138d b63f e2ff cdbe 3741 5b3e
-0.17674276 0.10540885 -0.2787308 -0.23969194 -0.34296373 -0.03900525 0.124969065 -0.17358606
0.43552214 0.27471307 -1.1504961 0.8609172 0.7119388 -0.7390993 -0.39354143 0.99414104
1.8401592 -0.10934667 0.7457917 -0.8392052 1.5056717 0.24631426 1.0795523 -0.67431235
-0.33667135 -0.15909794 -0.23749201 -0.18512918 -0.20993312 -0.2591796 0.031924427 -0.04697308
-0.45475256 -0.32224077 -0.5090952 0.6082425 1.1017232 0.45388153 -1.2695447 0.9764277
-0.036742955 0.15635791 0.10393119 -0.34045368 -0.20441967 0.018787473 -0.3133951 -0.011975974
0.3468462 -0.3145265 0.99027574 1.1341535 -1.2047337 0.009354262 -0.14961612 1.4138944
-0.4633494 0.32900533 1.3537172 0.59605587 -0.036741495 1.4261802 -0.40234286 0.21411596

l2.bias f4 [8]
00000000: e424 99bd b2d4 1c3f 0b3e 4b3f 284e 74be
00000010: ca5c 0a3e e891 a6be ef4a 163f e4d6 703e
-0.074777395 0.6126205 0.79391545 -0.23857939 0.13511959 -0.32533193 0.5870809 0.23519474

l3.weight f4 [7, 8]
00000000: fd2f 863e 8290 433f 8cda f03d a638 ddbd
00000010: 1871 533f 7d69 92be 7fe1 b9bf b67f adbf
00000020: ba45 5e3e a2f2 003e 412a f4be ee60 0fbe
00000030: 2f5d 1a3f 5ba1 9abe 4415 08bf c435 143f
00000040: 40c3 20be 9d48 2f3f 443e 9f3e 2075 cf3d
00000050: c966 a8bf 9439 a43d 219c db3e bc46 b7bf
00000060: 5b4d 943e 298e 9cbf 99d6 623f 3d2e 983e
00000070: 8437 31bf e4fd 4fbe 29ec 94bf e469 d8be
00000080: 4bd9 a43e 8bae 3d3f b603 c2bf d2c6 7f3e
00000090: 6ba3 0d3f 6c30 3abe 3e70 903e 5ed4 30be
000000a0: 00cc 3abd 19d7 a5bf 37d2 b8bc 7054 8d3d
000000b0: 5fe9 b2bf c055 98bd 8a8e fa3e 7f8c fa3e
000000c0: 1bb8 943e 259e 99bf bbcc a8bf 05e9 993e
000000d0: 651c fdbb 4eef 0e3e c722 313f 9cd0 643f
0.26208487 0.76392376 0.117604345 -0.108018205 0.8259444 -0.28596106 -1.4521941 -1.3554599
0.21706286 0.12592557 -0.47688487 -0.1400182 0.60298437 -0.3020123 -0.5315745 0.5789454
-0.15699482 0.68470174 0.31102192 0.10129762 -1.3156368 0.08018795 0.42892554 -1.4318461
0.28965268 -1.2230884 0.886087 0.29722777 -0.69225335 -0.20311695 -1.163457 -0.42268288
0.3219703 0.74094456 -1.5157382 0.24978188 0.5532748 -0.18182534 0.28210634 -0.17268512
-0.045604706 -1.2956268 -0.022561176 0.06900871 -1.3977469 -0.074382305 0.48936874 0.48935315
0.2904671 -1.2001387 -1.3187479 0.30060592 -0.007724332 0.13958475 0.6919369 0.8938081

l3.bias f4 [7]
00000000: edfb c5be df46 b1be 9764 083e 418a 133f
00000010: dc0a 1fbe b633 96bd d79f 713e
-0.38668767 -0.34624383 0.13319622 0.57632834 -0.15531486 -0.07334082 0.2359613
